…
I0128 17:45:49.272543  6262 net.cpp:322] The NetState phase (0) differed from the phase (1) specified by a rule in layer accuracy
I0128 17:45:49.272753  6262 net.cpp:58] Initializing net from parameters: 
name: "CaffeNet"
state {
  phase: TRAIN
  level: 0
  stage: ""
}
layer {
  name: "data"
  type: "Data"
  top: "data"
  top: "label"
  include {
    phase: TRAIN
  }
  transform_param {
    mirror: true
    crop_size: 227
    mean_file: "/home/mohit/Cat-Dog-Classification-Kaggle/input/mean.binaryproto"
  }
  data_param {
    source: "/home/mohit/Cat-Dog-Classification-Kaggle/input/train_lmdb"
    batch_size: 256
    backend: LMDB
  }
}
layer {
  name: "conv1"
  type: "Convolution"
  bottom: "data"
  top: "conv1"
  param {
    lr_mult: 1
    decay_mult: 1
  }
  param {
    lr_mult: 2
    decay_mult: 0
  }
  convolution_param {
    num_output: 96
    kernel_size: 11
    stride: 4
    weight_filler {
      type: "gaussian"
      std: 0.01
    }
    bias_filler {
      type: "constant"
      value: 0
    }
  }
}
layer {
  name: "relu1"
  type: "ReLU"
  bottom: "conv1"
  top: "conv1"
}
layer {
  name: "pool1"
  type: "Pooling"
  bottom: "conv1"
  top: "pool1"
  pooling_param {
    pool: MAX
    kernel_size: 3
    stride: 2
  }
}
layer {
  name: "norm1"
  type: "LRN"
  bottom: "pool1"
  top: "norm1"
  lrn_param {
    local_size: 5
    alpha: 0.0001
    beta: 0.75
  }
}
layer {
  name: "conv2"
  type: "Convolution"
  bottom: "norm1"
  top: "conv2"
  param {
    lr_mult: 1
    decay_mult: 1
  }
  param {
    lr_mult: 2
    decay_mult: 0
  }
  convolution_param {
    num_output: 256
    pad: 2
    kernel_size: 5
    group: 2
    weight_filler {
      type: "gaussian"
      std: 0.01
    }
    bias_filler {
      type: "constant"
      value: 1
    }
  }
}
layer {
  name: "relu2"
  type: "ReLU"
  bottom: "conv2"
  top: "conv2"
}
layer {
  name: "pool2"
  type: "Pooling"
  bottom: "conv2"
  top: "pool2"
  pooling_param {
    pool: MAX
    kernel_size: 3
    stride: 2
  }
}
layer {
  name: "norm2"
  type: "LRN"
  bottom: "pool2"
  top: "norm2"
  lrn_param {
    local_size: 5
    alpha: 0.0001
    beta: 0.75
  }
}
layer {
  name: "conv3"
  type: "Convolution"
  bottom: "norm2"
  top: "conv3"
  param {
    lr_mult: 1
    decay_mult: 1
  }
  param {
    lr_mult: 2
    decay_mult: 0
  }
  convolution_param {
    num_output: 384
    pad: 1
    kernel_size: 3
    weight_filler {
      type: "gaussian"
      std: 0.01
    }
    bias_filler {
      type: "constant"
      value: 0
    }
  }
}
layer {
  name: "relu3"
  type: "ReLU"
  bottom: "conv3"
  top: "conv3"
}
layer {
  name: "conv4"
  type: "Convolution"
  bottom: "conv3"
  top: "conv4"
  param {
    lr_mult: 1
    decay_mult: 1
  }
  param {
    lr_mult: 2
    decay_mult: 0
  }
  convolution_param {
    num_output: 384
    pad: 1
    kernel_size: 3
    group: 2
    weight_filler {
      type: "gaussian"
      std: 0.01
    }
    bias_filler {
      type: "constant"
      value: 1
    }
  }
}
layer {
  name: "relu4"
  type: "ReLU"
  bottom: "conv4"
  top: "conv4"
}
layer {
  name: "conv5"
  type: "Convolution"
  bottom: "conv4"
  top: "conv5"
  param {
    lr_mult: 1
    decay_mult: 1
  }
  param {
    lr_mult: 2
    decay_mult: 0
  }
  convolution_param {
    num_output: 256
    pad: 1
    kernel_size: 3
    group: 2
    weight_filler {
      type: "gaussian"
      std: 0.01
    }
    bias_filler {
      type: "constant"
      value: 1
    }
  }
}
layer {
  name: "relu5"
  type: "ReLU"
  bottom: "conv5"
  top: "conv5"
}
layer {
  name: "pool5"
  type: "Pooling"
  bottom: "conv5"
  top: "pool5"
  pooling_param {
    pool: MAX
    kernel_size: 3
    stride: 2
  }
}
layer {
  name: "fc6"
  type: "InnerProduct"
  bottom: "pool5"
  top: "fc6"
  param {
    lr_mult: 1
    decay_mult: 1
  }
  param {
    lr_mult: 2
    decay_mult: 0
  }
  inner_product_param {
    num_output: 4096
    weight_filler {
      type: "gaussian"
      std: 0.005
    }
    bias_filler {
      type: "constant"
      value: 1
    }
  }
}
layer {
  name: "relu6"
  type: "ReLU"
  bottom: "fc6"
  top: "fc6"
}
layer {
  name: "drop6"
  type: "Dropout"
  bottom: "fc6"
  top: "fc6"
  dropout_param {
    dropout_ratio: 0.5
  }
}
layer {
  name: "fc7"
  type: "InnerProduct"
  bottom: "fc6"
  top: "fc7"
  param {
    lr_mult: 1
    decay_mult: 1
  }
  param {
    lr_mult: 2
    decay_mult: 0
  }
  inner_product_param {
    num_output: 4096
    weight_filler {
      type: "gaussian"
      std: 0.005
    }
    bias_filler {
      type: "constant"
      value: 1
    }
  }
}
layer {
  name: "relu7"
  type: "ReLU"
  bottom: "fc7"
  top: "fc7"
}
layer {
  name: "drop7"
  type: "Dropout"
  bottom: "fc7"
  top: "fc7"
  dropout_param {
    dropout_ratio: 0.5
  }
}
layer {
  name: "fc8"
  type: "InnerProduct"
  bottom: "fc7"
  top: "fc8"
  param {
    lr_mult: 1
    decay_mult: 1
  }
  param {
    lr_mult: 2
    decay_mult: 0
  }
  inner_product_param {
    num_output: 2
    weight_filler {
      type: "gaussian"
      std: 0.01
    }
    bias_filler {
      type: "constant"
      value: 0
    }
  }
}
layer {
  name: "loss"
  type: "SoftmaxWithLoss"
  bottom: "fc8"
  bottom: "label"
  top: "loss"
}
I0128 17:45:49.272871  6262 layer_factory.hpp:77] Creating layer data
I0128 17:45:49.273556  6262 net.cpp:100] Creating Layer data
I0128 17:45:49.273913  6262 net.cpp:408] data -> data
I0128 17:45:49.273946  6266 db_lmdb.cpp:35] Opened lmdb /home/mohit/Cat-Dog-Classification-Kaggle/input/train_lmdb
I0128 17:45:49.273967  6262 net.cpp:408] data -> label
I0128 17:45:49.273998  6262 data_transformer.cpp:25] Loading mean file from: /home/mohit/Cat-Dog-Classification-Kaggle/input/mean.binaryproto
I0128 17:45:49.275965  6262 data_layer.cpp:41] output data size: 256,3,227,227
I0128 17:45:49.346223  6262 net.cpp:150] Setting up data
I0128 17:45:49.346328  6262 net.cpp:157] Top shape: 256 3 227 227 (39574272)
I0128 17:45:49.346357  6262 net.cpp:157] Top shape: 256 (256)
I0128 17:45:49.346379  6262 net.cpp:165] Memory required for data: 158298112
I0128 17:45:49.346405  6262 layer_factory.hpp:77] Creating layer conv1
I0128 17:45:49.346457  6262 net.cpp:100] Creating Layer conv1
I0128 17:45:49.346485  6262 net.cpp:434] conv1 <- data
I0128 17:45:49.346519  6262 net.cpp:408] conv1 -> conv1
I0128 17:45:49.348213  6262 net.cpp:150] Setting up conv1
I0128 17:45:49.348295  6262 net.cpp:157] Top shape: 256 96 55 55 (74342400)
I0128 17:45:49.348316  6262 net.cpp:165] Memory required for data: 455667712
I0128 17:45:49.348356  6262 layer_factory.hpp:77] Creating layer relu1
I0128 17:45:49.348387  6262 net.cpp:100] Creating Layer relu1
I0128 17:45:49.348409  6262 net.cpp:434] relu1 <- conv1
I0128 17:45:49.348435  6262 net.cpp:395] relu1 -> conv1 (in-place)
I0128 17:45:49.348469  6262 net.cpp:150] Setting up relu1
I0128 17:45:49.348493  6262 net.cpp:157] Top shape: 256 96 55 55 (74342400)
I0128 17:45:49.348511  6262 net.cpp:165] Memory required for data: 753037312
I0128 17:45:49.348531  6262 layer_factory.hpp:77] Creating layer pool1
I0128 17:45:49.348553  6262 net.cpp:100] Creating Layer pool1
I0128 17:45:49.348573  6262 net.cpp:434] pool1 <- conv1
I0128 17:45:49.348594  6262 net.cpp:408] pool1 -> pool1
I0128 17:45:49.348635  6262 net.cpp:150] Setting up pool1
I0128 17:45:49.348660  6262 net.cpp:157] Top shape: 256 96 27 27 (17915904)
I0128 17:45:49.348680  6262 net.cpp:165] Memory required for data: 824700928
I0128 17:45:49.348723  6262 layer_factory.hpp:77] Creating layer norm1
I0128 17:45:49.348750  6262 net.cpp:100] Creating Layer norm1
I0128 17:45:49.348770  6262 net.cpp:434] norm1 <- pool1
I0128 17:45:49.348793  6262 net.cpp:408] norm1 -> norm1
I0128 17:45:49.348826  6262 net.cpp:150] Setting up norm1
I0128 17:45:49.348850  6262 net.cpp:157] Top shape: 256 96 27 27 (17915904)
I0128 17:45:49.348870  6262 net.cpp:165] Memory required for data: 896364544
I0128 17:45:49.348887  6262 layer_factory.hpp:77] Creating layer conv2
I0128 17:45:49.348914  6262 net.cpp:100] Creating Layer conv2
I0128 17:45:49.348935  6262 net.cpp:434] conv2 <- norm1
I0128 17:45:49.348956  6262 net.cpp:408] conv2 -> conv2
I0128 17:45:49.363515  6262 net.cpp:150] Setting up conv2
I0128 17:45:49.363605  6262 net.cpp:157] Top shape: 256 256 27 27 (47775744)
I0128 17:45:49.363626  6262 net.cpp:165] Memory required for data: 1087467520
I0128 17:45:49.363657  6262 layer_factory.hpp:77] Creating layer relu2
I0128 17:45:49.363687  6262 net.cpp:100] Creating Layer relu2
I0128 17:45:49.363709  6262 net.cpp:434] relu2 <- conv2
I0128 17:45:49.363731  6262 net.cpp:395] relu2 -> conv2 (in-place)
I0128 17:45:49.363759  6262 net.cpp:150] Setting up relu2
I0128 17:45:49.363781  6262 net.cpp:157] Top shape: 256 256 27 27 (47775744)
I0128 17:45:49.363804  6262 net.cpp:165] Memory required for data: 1278570496
I0128 17:45:49.363823  6262 layer_factory.hpp:77] Creating layer pool2
I0128 17:45:49.363847  6262 net.cpp:100] Creating Layer pool2
I0128 17:45:49.363867  6262 net.cpp:434] pool2 <- conv2
I0128 17:45:49.363888  6262 net.cpp:408] pool2 -> pool2
I0128 17:45:49.363914  6262 net.cpp:150] Setting up pool2
I0128 17:45:49.363937  6262 net.cpp:157] Top shape: 256 256 13 13 (11075584)
I0128 17:45:49.363956  6262 net.cpp:165] Memory required for data: 1322872832
I0128 17:45:49.363975  6262 layer_factory.hpp:77] Creating layer norm2
I0128 17:45:49.363999  6262 net.cpp:100] Creating Layer norm2
I0128 17:45:49.364019  6262 net.cpp:434] norm2 <- pool2
I0128 17:45:49.364040  6262 net.cpp:408] norm2 -> norm2
I0128 17:45:49.364066  6262 net.cpp:150] Setting up norm2
I0128 17:45:49.364089  6262 net.cpp:157] Top shape: 256 256 13 13 (11075584)
I0128 17:45:49.364107  6262 net.cpp:165] Memory required for data: 1367175168
I0128 17:45:49.364126  6262 layer_factory.hpp:77] Creating layer conv3
I0128 17:45:49.364152  6262 net.cpp:100] Creating Layer conv3
I0128 17:45:49.364173  6262 net.cpp:434] conv3 <- norm2
I0128 17:45:49.364194  6262 net.cpp:408] conv3 -> conv3
I0128 17:45:49.405635  6262 net.cpp:150] Setting up conv3
I0128 17:45:49.405725  6262 net.cpp:157] Top shape: 256 384 13 13 (16613376)
I0128 17:45:49.405750  6262 net.cpp:165] Memory required for data: 1433628672
I0128 17:45:49.405782  6262 layer_factory.hpp:77] Creating layer relu3
I0128 17:45:49.405809  6262 net.cpp:100] Creating Layer relu3
I0128 17:45:49.405833  6262 net.cpp:434] relu3 <- conv3
I0128 17:45:49.405855  6262 net.cpp:395] relu3 -> conv3 (in-place)
I0128 17:45:49.405882  6262 net.cpp:150] Setting up relu3
I0128 17:45:49.405910  6262 net.cpp:157] Top shape: 256 384 13 13 (16613376)
I0128 17:45:49.405931  6262 net.cpp:165] Memory required for data: 1500082176
I0128 17:45:49.405951  6262 layer_factory.hpp:77] Creating layer conv4
I0128 17:45:49.405979  6262 net.cpp:100] Creating Layer conv4
I0128 17:45:49.405999  6262 net.cpp:434] conv4 <- conv3
I0128 17:45:49.406023  6262 net.cpp:408] conv4 -> conv4
I0128 17:45:49.435619  6262 net.cpp:150] Setting up conv4
I0128 17:45:49.435658  6262 net.cpp:157] Top shape: 256 384 13 13 (16613376)
I0128 17:45:49.435664  6262 net.cpp:165] Memory required for data: 1566535680
I0128 17:45:49.435677  6262 layer_factory.hpp:77] Creating layer relu4
I0128 17:45:49.435688  6262 net.cpp:100] Creating Layer relu4
I0128 17:45:49.435694  6262 net.cpp:434] relu4 <- conv4
I0128 17:45:49.435703  6262 net.cpp:395] relu4 -> conv4 (in-place)
I0128 17:45:49.435714  6262 net.cpp:150] Setting up relu4
I0128 17:45:49.435721  6262 net.cpp:157] Top shape: 256 384 13 13 (16613376)
I0128 17:45:49.435726  6262 net.cpp:165] Memory required for data: 1632989184
I0128 17:45:49.435750  6262 layer_factory.hpp:77] Creating layer conv5
I0128 17:45:49.435762  6262 net.cpp:100] Creating Layer conv5
I0128 17:45:49.435768  6262 net.cpp:434] conv5 <- conv4
I0128 17:45:49.435776  6262 net.cpp:408] conv5 -> conv5
I0128 17:45:49.455014  6262 net.cpp:150] Setting up conv5
I0128 17:45:49.455052  6262 net.cpp:157] Top shape: 256 256 13 13 (11075584)
I0128 17:45:49.455059  6262 net.cpp:165] Memory required for data: 1677291520
I0128 17:45:49.455075  6262 layer_factory.hpp:77] Creating layer relu5
I0128 17:45:49.455087  6262 net.cpp:100] Creating Layer relu5
I0128 17:45:49.455093  6262 net.cpp:434] relu5 <- conv5
I0128 17:45:49.455102  6262 net.cpp:395] relu5 -> conv5 (in-place)
I0128 17:45:49.455113  6262 net.cpp:150] Setting up relu5
I0128 17:45:49.455121  6262 net.cpp:157] Top shape: 256 256 13 13 (11075584)
I0128 17:45:49.455126  6262 net.cpp:165] Memory required for data: 1721593856
I0128 17:45:49.455130  6262 layer_factory.hpp:77] Creating layer pool5
I0128 17:45:49.455138  6262 net.cpp:100] Creating Layer pool5
I0128 17:45:49.455143  6262 net.cpp:434] pool5 <- conv5
I0128 17:45:49.455152  6262 net.cpp:408] pool5 -> pool5
I0128 17:45:49.455163  6262 net.cpp:150] Setting up pool5
I0128 17:45:49.455169  6262 net.cpp:157] Top shape: 256 256 6 6 (2359296)
I0128 17:45:49.455174  6262 net.cpp:165] Memory required for data: 1731031040
I0128 17:45:49.455179  6262 layer_factory.hpp:77] Creating layer fc6
I0128 17:45:49.455190  6262 net.cpp:100] Creating Layer fc6
I0128 17:45:49.455195  6262 net.cpp:434] fc6 <- pool5
I0128 17:45:49.455204  6262 net.cpp:408] fc6 -> fc6
I0128 17:45:50.650115  6262 net.cpp:150] Setting up fc6
I0128 17:45:50.650156  6262 net.cpp:157] Top shape: 256 4096 (1048576)
I0128 17:45:50.650162  6262 net.cpp:165] Memory required for data: 1735225344
I0128 17:45:50.650172  6262 layer_factory.hpp:77] Creating layer relu6
I0128 17:45:50.650182  6262 net.cpp:100] Creating Layer relu6
I0128 17:45:50.650187  6262 net.cpp:434] relu6 <- fc6
I0128 17:45:50.650193  6262 net.cpp:395] relu6 -> fc6 (in-place)
I0128 17:45:50.650203  6262 net.cpp:150] Setting up relu6
I0128 17:45:50.650207  6262 net.cpp:157] Top shape: 256 4096 (1048576)
I0128 17:45:50.650210  6262 net.cpp:165] Memory required for data: 1739419648
I0128 17:45:50.650214  6262 layer_factory.hpp:77] Creating layer drop6
I0128 17:45:50.650228  6262 net.cpp:100] Creating Layer drop6
I0128 17:45:50.650231  6262 net.cpp:434] drop6 <- fc6
I0128 17:45:50.650235  6262 net.cpp:395] drop6 -> fc6 (in-place)
I0128 17:45:50.650245  6262 net.cpp:150] Setting up drop6
I0128 17:45:50.650250  6262 net.cpp:157] Top shape: 256 4096 (1048576)
I0128 17:45:50.650254  6262 net.cpp:165] Memory required for data: 1743613952
I0128 17:45:50.650256  6262 layer_factory.hpp:77] Creating layer fc7
I0128 17:45:50.650264  6262 net.cpp:100] Creating Layer fc7
I0128 17:45:50.650266  6262 net.cpp:434] fc7 <- fc6
I0128 17:45:50.650271  6262 net.cpp:408] fc7 -> fc7
I0128 17:45:51.122977  6262 net.cpp:150] Setting up fc7
I0128 17:45:51.123015  6262 net.cpp:157] Top shape: 256 4096 (1048576)
I0128 17:45:51.123020  6262 net.cpp:165] Memory required for data: 1747808256
I0128 17:45:51.123030  6262 layer_factory.hpp:77] Creating layer relu7
I0128 17:45:51.123040  6262 net.cpp:100] Creating Layer relu7
I0128 17:45:51.123049  6262 net.cpp:434] relu7 <- fc7
I0128 17:45:51.123056  6262 net.cpp:395] relu7 -> fc7 (in-place)
I0128 17:45:51.123070  6262 net.cpp:150] Setting up relu7
I0128 17:45:51.123076  6262 net.cpp:157] Top shape: 256 4096 (1048576)
I0128 17:45:51.123080  6262 net.cpp:165] Memory required for data: 1752002560
I0128 17:45:51.123086  6262 layer_factory.hpp:77] Creating layer drop7
I0128 17:45:51.123095  6262 net.cpp:100] Creating Layer drop7
I0128 17:45:51.123101  6262 net.cpp:434] drop7 <- fc7
I0128 17:45:51.123109  6262 net.cpp:395] drop7 -> fc7 (in-place)
I0128 17:45:51.123121  6262 net.cpp:150] Setting up drop7
I0128 17:45:51.123128  6262 net.cpp:157] Top shape: 256 4096 (1048576)
I0128 17:45:51.123133  6262 net.cpp:165] Memory required for data: 1756196864
I0128 17:45:51.123162  6262 layer_factory.hpp:77] Creating layer fc8
I0128 17:45:51.123177  6262 net.cpp:100] Creating Layer fc8
I0128 17:45:51.123184  6262 net.cpp:434] fc8 <- fc7
I0128 17:45:51.123194  6262 net.cpp:408] fc8 -> fc8
I0128 17:45:51.123461  6262 net.cpp:150] Setting up fc8
I0128 17:45:51.123469  6262 net.cpp:157] Top shape: 256 2 (512)
I0128 17:45:51.123483  6262 net.cpp:165] Memory required for data: 1756198912
I0128 17:45:51.123505  6262 layer_factory.hpp:77] Creating layer loss
I0128 17:45:51.123519  6262 net.cpp:100] Creating Layer loss
I0128 17:45:51.123528  6262 net.cpp:434] loss <- fc8
I0128 17:45:51.123534  6262 net.cpp:434] loss <- label
I0128 17:45:51.123546  6262 net.cpp:408] loss -> loss
I0128 17:45:51.123569  6262 layer_factory.hpp:77] Creating layer loss
…
I0128 17:45:51.124445  6262 net.cpp:322] The NetState phase (1) differed from the phase (0) specified by a rule in layer data
I0128 17:45:51.124614  6262 net.cpp:58] Initializing net from parameters: 
name: "CaffeNet"
state {
  phase: TEST
}
layer {
  name: "data"
  type: "Data"
  top: "data"
  top: "label"
  include {
    phase: TEST
  }
  transform_param {
    mirror: false
    crop_size: 227
    mean_file: "/home/mohit/Cat-Dog-Classification-Kaggle/input/mean.binaryproto"
  }
  data_param {
    source: "/home/mohit/Cat-Dog-Classification-Kaggle/input/val_lmdb"
    batch_size: 50
    backend: LMDB
  }
}
layer {
  name: "conv1"
  type: "Convolution"
  bottom: "data"
  top: "conv1"
  param {
    lr_mult: 1
    decay_mult: 1
  }
  param {
    lr_mult: 2
    decay_mult: 0
  }
  convolution_param {
    num_output: 96
    kernel_size: 11
    stride: 4
    weight_filler {
      type: "gaussian"
      std: 0.01
    }
    bias_filler {
      type: "constant"
      value: 0
    }
  }
}
layer {
  name: "relu1"
  type: "ReLU"
  bottom: "conv1"
  top: "conv1"
}
layer {
  name: "pool1"
  type: "Pooling"
  bottom: "conv1"
  top: "pool1"
  pooling_param {
    pool: MAX
    kernel_size: 3
    stride: 2
  }
}
layer {
  name: "norm1"
  type: "LRN"
  bottom: "pool1"
  top: "norm1"
  lrn_param {
    local_size: 5
    alpha: 0.0001
    beta: 0.75
  }
}
layer {
  name: "conv2"
  type: "Convolution"
  bottom: "norm1"
  top: "conv2"
  param {
    lr_mult: 1
    decay_mult: 1
  }
  param {
    lr_mult: 2
    decay_mult: 0
  }
  convolution_param {
    num_output: 256
    pad: 2
    kernel_size: 5
    group: 2
    weight_filler {
      type: "gaussian"
      std: 0.01
    }
    bias_filler {
      type: "constant"
      value: 1
    }
  }
}
layer {
  name: "relu2"
  type: "ReLU"
  bottom: "conv2"
  top: "conv2"
}
layer {
  name: "pool2"
  type: "Pooling"
  bottom: "conv2"
  top: "pool2"
  pooling_param {
    pool: MAX
    kernel_size: 3
    stride: 2
  }
}
layer {
  name: "norm2"
  type: "LRN"
  bottom: "pool2"
  top: "norm2"
  lrn_param {
    local_size: 5
    alpha: 0.0001
    beta: 0.75
  }
}
layer {
  name: "conv3"
  type: "Convolution"
  bottom: "norm2"
  top: "conv3"
  param {
    lr_mult: 1
    decay_mult: 1
  }
  param {
    lr_mult: 2
    decay_mult: 0
  }
  convolution_param {
    num_output: 384
    pad: 1
    kernel_size: 3
    weight_filler {
      type: "gaussian"
      std: 0.01
    }
    bias_filler {
      type: "constant"
      value: 0
    }
  }
}
layer {
  name: "relu3"
  type: "ReLU"
  bottom: "conv3"
  top: "conv3"
}
layer {
  name: "conv4"
  type: "Convolution"
  bottom: "conv3"
  top: "conv4"
  param {
    lr_mult: 1
    decay_mult: 1
  }
  param {
    lr_mult: 2
    decay_mult: 0
  }
  convolution_param {
    num_output: 384
    pad: 1
    kernel_size: 3
    group: 2
    weight_filler {
      type: "gaussian"
      std: 0.01
    }
    bias_filler {
      type: "constant"
      value: 1
    }
  }
}
layer {
  name: "relu4"
  type: "ReLU"
  bottom: "conv4"
  top: "conv4"
}
layer {
  name: "conv5"
  type: "Convolution"
  bottom: "conv4"
  top: "conv5"
  param {
    lr_mult: 1
    decay_mult: 1
  }
  param {
    lr_mult: 2
    decay_mult: 0
  }
  convolution_param {
    num_output: 256
    pad: 1
    kernel_size: 3
    group: 2
    weight_filler {
      type: "gaussian"
      std: 0.01
    }
    bias_filler {
      type: "constant"
      value: 1
    }
  }
}
layer {
  name: "relu5"
  type: "ReLU"
  bottom: "conv5"
  top: "conv5"
}
layer {
  name: "pool5"
  type: "Pooling"
  bottom: "conv5"
  top: "pool5"
  pooling_param {
    pool: MAX
    kernel_size: 3
    stride: 2
  }
}
layer {
  name: "fc6"
  type: "InnerProduct"
  bottom: "pool5"
  top: "fc6"
  param {
    lr_mult: 1
    decay_mult: 1
  }
  param {
    lr_mult: 2
    decay_mult: 0
  }
  inner_product_param {
    num_output: 4096
    weight_filler {
      type: "gaussian"
      std: 0.005
    }
    bias_filler {
      type: "constant"
      value: 1
    }
  }
}
layer {
  name: "relu6"
  type: "ReLU"
  bottom: "fc6"
  top: "fc6"
}
layer {
  name: "drop6"
  type: "Dropout"
  bottom: "fc6"
  top: "fc6"
  dropout_param {
    dropout_ratio: 0.5
  }
}
layer {
  name: "fc7"
  type: "InnerProduct"
  bottom: "fc6"
  top: "fc7"
  param {
    lr_mult: 1
    decay_mult: 1
  }
  param {
    lr_mult: 2
    decay_mult: 0
  }
  inner_product_param {
    num_output: 4096
    weight_filler {
      type: "gaussian"
      std: 0.005
    }
    bias_filler {
      type: "constant"
      value: 1
    }
  }
}
layer {
  name: "relu7"
  type: "ReLU"
  bottom: "fc7"
  top: "fc7"
}
layer {
  name: "drop7"
  type: "Dropout"
  bottom: "fc7"
  top: "fc7"
  dropout_param {
    dropout_ratio: 0.5
  }
}
layer {
  name: "fc8"
  type: "InnerProduct"
  bottom: "fc7"
  top: "fc8"
  param {
    lr_mult: 1
    decay_mult: 1
  }
  param {
    lr_mult: 2
    decay_mult: 0
  }
  inner_product_param {
    num_output: 2
    weight_filler {
      type: "gaussian"
      std: 0.01
    }
    bias_filler {
      type: "constant"
      value: 0
    }
  }
}
layer {
  name: "accuracy"
  type: "Accuracy"
  bottom: "fc8"
  bottom: "label"
  top: "accuracy"
  include {
    phase: TEST
  }
}
layer {
  name: "loss"
  type: "SoftmaxWithLoss"
  bottom: "fc8"
  bottom: "label"
  top: "loss"
}
I0128 17:45:51.124733  6262 layer_factory.hpp:77] Creating layer data
I0128 17:45:51.124806  6262 net.cpp:100] Creating Layer data
I0128 17:45:51.124814  6262 net.cpp:408] data -> data
I0128 17:45:51.124822  6262 net.cpp:408] data -> label
I0128 17:45:51.124830  6262 data_transformer.cpp:25] Loading mean file from: /home/mohit/Cat-Dog-Classification-Kaggle/input/mean.binaryproto
I0128 17:45:51.124897  6268 db_lmdb.cpp:35] Opened lmdb /home/mohit/Cat-Dog-Classification-Kaggle/input/val_lmdb
I0128 17:45:51.126282  6262 data_layer.cpp:41] output data size: 50,3,227,227
I0128 17:45:51.142065  6262 net.cpp:150] Setting up data
I0128 17:45:51.142107  6262 net.cpp:157] Top shape: 50 3 227 227 (7729350)
I0128 17:45:51.142118  6262 net.cpp:157] Top shape: 50 (50)
I0128 17:45:51.142124  6262 net.cpp:165] Memory required for data: 30917600
I0128 17:45:51.142134  6262 layer_factory.hpp:77] Creating layer label_data_1_split
I0128 17:45:51.142161  6262 net.cpp:100] Creating Layer label_data_1_split
I0128 17:45:51.142168  6262 net.cpp:434] label_data_1_split <- label
I0128 17:45:51.142177  6262 net.cpp:408] label_data_1_split -> label_data_1_split_0
I0128 17:45:51.142190  6262 net.cpp:408] label_data_1_split -> label_data_1_split_1
I0128 17:45:51.142204  6262 net.cpp:150] Setting up label_data_1_split
I0128 17:45:51.142211  6262 net.cpp:157] Top shape: 50 (50)
I0128 17:45:51.142217  6262 net.cpp:157] Top shape: 50 (50)
I0128 17:45:51.142222  6262 net.cpp:165] Memory required for data: 30918000
I0128 17:45:51.142227  6262 layer_factory.hpp:77] Creating layer conv1
I0128 17:45:51.142242  6262 net.cpp:100] Creating Layer conv1
I0128 17:45:51.142247  6262 net.cpp:434] conv1 <- data
I0128 17:45:51.142256  6262 net.cpp:408] conv1 -> conv1
I0128 17:45:51.143872  6262 net.cpp:150] Setting up conv1
I0128 17:45:51.143901  6262 net.cpp:157] Top shape: 50 96 55 55 (14520000)
I0128 17:45:51.143908  6262 net.cpp:165] Memory required for data: 88998000
I0128 17:45:51.143924  6262 layer_factory.hpp:77] Creating layer relu1
I0128 17:45:51.143937  6262 net.cpp:100] Creating Layer relu1
I0128 17:45:51.143944  6262 net.cpp:434] relu1 <- conv1
I0128 17:45:51.143951  6262 net.cpp:395] relu1 -> conv1 (in-place)
I0128 17:45:51.143962  6262 net.cpp:150] Setting up relu1
I0128 17:45:51.143970  6262 net.cpp:157] Top shape: 50 96 55 55 (14520000)
I0128 17:45:51.143975  6262 net.cpp:165] Memory required for data: 147078000
I0128 17:45:51.143980  6262 layer_factory.hpp:77] Creating layer pool1
I0128 17:45:51.143990  6262 net.cpp:100] Creating Layer pool1
I0128 17:45:51.143995  6262 net.cpp:434] pool1 <- conv1
I0128 17:45:51.144001  6262 net.cpp:408] pool1 -> pool1
I0128 17:45:51.144013  6262 net.cpp:150] Setting up pool1
I0128 17:45:51.144019  6262 net.cpp:157] Top shape: 50 96 27 27 (3499200)
I0128 17:45:51.144024  6262 net.cpp:165] Memory required for data: 161074800
I0128 17:45:51.144029  6262 layer_factory.hpp:77] Creating layer norm1
I0128 17:45:51.144038  6262 net.cpp:100] Creating Layer norm1
I0128 17:45:51.144043  6262 net.cpp:434] norm1 <- pool1
I0128 17:45:51.144050  6262 net.cpp:408] norm1 -> norm1
I0128 17:45:51.144059  6262 net.cpp:150] Setting up norm1
I0128 17:45:51.144065  6262 net.cpp:157] Top shape: 50 96 27 27 (3499200)
I0128 17:45:51.144070  6262 net.cpp:165] Memory required for data: 175071600
I0128 17:45:51.144075  6262 layer_factory.hpp:77] Creating layer conv2
I0128 17:45:51.144086  6262 net.cpp:100] Creating Layer conv2
I0128 17:45:51.144091  6262 net.cpp:434] conv2 <- norm1
I0128 17:45:51.144099  6262 net.cpp:408] conv2 -> conv2
I0128 17:45:51.158257  6262 net.cpp:150] Setting up conv2
I0128 17:45:51.158303  6262 net.cpp:157] Top shape: 50 256 27 27 (9331200)
I0128 17:45:51.158308  6262 net.cpp:165] Memory required for data: 212396400
I0128 17:45:51.158356  6262 layer_factory.hpp:77] Creating layer relu2
I0128 17:45:51.158370  6262 net.cpp:100] Creating Layer relu2
I0128 17:45:51.158376  6262 net.cpp:434] relu2 <- conv2
I0128 17:45:51.158387  6262 net.cpp:395] relu2 -> conv2 (in-place)
I0128 17:45:51.158399  6262 net.cpp:150] Setting up relu2
I0128 17:45:51.158406  6262 net.cpp:157] Top shape: 50 256 27 27 (9331200)
I0128 17:45:51.158411  6262 net.cpp:165] Memory required for data: 249721200
I0128 17:45:51.158416  6262 layer_factory.hpp:77] Creating layer pool2
I0128 17:45:51.158427  6262 net.cpp:100] Creating Layer pool2
I0128 17:45:51.158432  6262 net.cpp:434] pool2 <- conv2
I0128 17:45:51.158439  6262 net.cpp:408] pool2 -> pool2
I0128 17:45:51.158454  6262 net.cpp:150] Setting up pool2
I0128 17:45:51.158463  6262 net.cpp:157] Top shape: 50 256 13 13 (2163200)
I0128 17:45:51.158468  6262 net.cpp:165] Memory required for data: 258374000
I0128 17:45:51.158473  6262 layer_factory.hpp:77] Creating layer norm2
I0128 17:45:51.158481  6262 net.cpp:100] Creating Layer norm2
I0128 17:45:51.158488  6262 net.cpp:434] norm2 <- pool2
I0128 17:45:51.158494  6262 net.cpp:408] norm2 -> norm2
I0128 17:45:51.158504  6262 net.cpp:150] Setting up norm2
I0128 17:45:51.158510  6262 net.cpp:157] Top shape: 50 256 13 13 (2163200)
I0128 17:45:51.158515  6262 net.cpp:165] Memory required for data: 267026800
I0128 17:45:51.158520  6262 layer_factory.hpp:77] Creating layer conv3
I0128 17:45:51.158534  6262 net.cpp:100] Creating Layer conv3
I0128 17:45:51.158538  6262 net.cpp:434] conv3 <- norm2
I0128 17:45:51.158548  6262 net.cpp:408] conv3 -> conv3
I0128 17:45:51.196830  6262 net.cpp:150] Setting up conv3
I0128 17:45:51.196864  6262 net.cpp:157] Top shape: 50 384 13 13 (3244800)
I0128 17:45:51.196871  6262 net.cpp:165] Memory required for data: 280006000
I0128 17:45:51.196892  6262 layer_factory.hpp:77] Creating layer relu3
I0128 17:45:51.196907  6262 net.cpp:100] Creating Layer relu3
I0128 17:45:51.196915  6262 net.cpp:434] relu3 <- conv3
I0128 17:45:51.196930  6262 net.cpp:395] relu3 -> conv3 (in-place)
I0128 17:45:51.196944  6262 net.cpp:150] Setting up relu3
I0128 17:45:51.196951  6262 net.cpp:157] Top shape: 50 384 13 13 (3244800)
I0128 17:45:51.196956  6262 net.cpp:165] Memory required for data: 292985200
I0128 17:45:51.196961  6262 layer_factory.hpp:77] Creating layer conv4
I0128 17:45:51.196976  6262 net.cpp:100] Creating Layer conv4
I0128 17:45:51.196982  6262 net.cpp:434] conv4 <- conv3
I0128 17:45:51.196990  6262 net.cpp:408] conv4 -> conv4
I0128 17:45:51.225988  6262 net.cpp:150] Setting up conv4
I0128 17:45:51.226034  6262 net.cpp:157] Top shape: 50 384 13 13 (3244800)
I0128 17:45:51.226042  6262 net.cpp:165] Memory required for data: 305964400
I0128 17:45:51.226056  6262 layer_factory.hpp:77] Creating layer relu4
I0128 17:45:51.226070  6262 net.cpp:100] Creating Layer relu4
I0128 17:45:51.226078  6262 net.cpp:434] relu4 <- conv4
I0128 17:45:51.226089  6262 net.cpp:395] relu4 -> conv4 (in-place)
I0128 17:45:51.226102  6262 net.cpp:150] Setting up relu4
I0128 17:45:51.226110  6262 net.cpp:157] Top shape: 50 384 13 13 (3244800)
I0128 17:45:51.226115  6262 net.cpp:165] Memory required for data: 318943600
I0128 17:45:51.226121  6262 layer_factory.hpp:77] Creating layer conv5
I0128 17:45:51.226135  6262 net.cpp:100] Creating Layer conv5
I0128 17:45:51.226141  6262 net.cpp:434] conv5 <- conv4
I0128 17:45:51.226152  6262 net.cpp:408] conv5 -> conv5
I0128 17:45:51.244447  6262 net.cpp:150] Setting up conv5
I0128 17:45:51.244482  6262 net.cpp:157] Top shape: 50 256 13 13 (2163200)
I0128 17:45:51.244488  6262 net.cpp:165] Memory required for data: 327596400
I0128 17:45:51.244501  6262 layer_factory.hpp:77] Creating layer relu5
I0128 17:45:51.244513  6262 net.cpp:100] Creating Layer relu5
I0128 17:45:51.244518  6262 net.cpp:434] relu5 <- conv5
I0128 17:45:51.244524  6262 net.cpp:395] relu5 -> conv5 (in-place)
I0128 17:45:51.244535  6262 net.cpp:150] Setting up relu5
I0128 17:45:51.244541  6262 net.cpp:157] Top shape: 50 256 13 13 (2163200)
I0128 17:45:51.244544  6262 net.cpp:165] Memory required for data: 336249200
I0128 17:45:51.244568  6262 layer_factory.hpp:77] Creating layer pool5
I0128 17:45:51.244580  6262 net.cpp:100] Creating Layer pool5
I0128 17:45:51.244585  6262 net.cpp:434] pool5 <- conv5
I0128 17:45:51.244590  6262 net.cpp:408] pool5 -> pool5
I0128 17:45:51.244599  6262 net.cpp:150] Setting up pool5
I0128 17:45:51.244604  6262 net.cpp:157] Top shape: 50 256 6 6 (460800)
I0128 17:45:51.244607  6262 net.cpp:165] Memory required for data: 338092400
I0128 17:45:51.244611  6262 layer_factory.hpp:77] Creating layer fc6
I0128 17:45:51.244618  6262 net.cpp:100] Creating Layer fc6
I0128 17:45:51.244622  6262 net.cpp:434] fc6 <- pool5
I0128 17:45:51.244630  6262 net.cpp:408] fc6 -> fc6
I0128 17:45:52.296865  6262 net.cpp:150] Setting up fc6
I0128 17:45:52.296902  6262 net.cpp:157] Top shape: 50 4096 (204800)
I0128 17:45:52.296907  6262 net.cpp:165] Memory required for data: 338911600
I0128 17:45:52.296916  6262 layer_factory.hpp:77] Creating layer relu6
I0128 17:45:52.296926  6262 net.cpp:100] Creating Layer relu6
I0128 17:45:52.296934  6262 net.cpp:434] relu6 <- fc6
I0128 17:45:52.296942  6262 net.cpp:395] relu6 -> fc6 (in-place)
I0128 17:45:52.296955  6262 net.cpp:150] Setting up relu6
I0128 17:45:52.296962  6262 net.cpp:157] Top shape: 50 4096 (204800)
I0128 17:45:52.296967  6262 net.cpp:165] Memory required for data: 339730800
I0128 17:45:52.296973  6262 layer_factory.hpp:77] Creating layer drop6
I0128 17:45:52.296983  6262 net.cpp:100] Creating Layer drop6
I0128 17:45:52.296989  6262 net.cpp:434] drop6 <- fc6
I0128 17:45:52.296999  6262 net.cpp:395] drop6 -> fc6 (in-place)
I0128 17:45:52.297010  6262 net.cpp:150] Setting up drop6
I0128 17:45:52.297019  6262 net.cpp:157] Top shape: 50 4096 (204800)
I0128 17:45:52.297024  6262 net.cpp:165] Memory required for data: 340550000
I0128 17:45:52.297030  6262 layer_factory.hpp:77] Creating layer fc7
I0128 17:45:52.297040  6262 net.cpp:100] Creating Layer fc7
I0128 17:45:52.297051  6262 net.cpp:434] fc7 <- fc6
I0128 17:45:52.297060  6262 net.cpp:408] fc7 -> fc7
I0128 17:45:52.765275  6262 net.cpp:150] Setting up fc7
I0128 17:45:52.765313  6262 net.cpp:157] Top shape: 50 4096 (204800)
I0128 17:45:52.765318  6262 net.cpp:165] Memory required for data: 341369200
I0128 17:45:52.765328  6262 layer_factory.hpp:77] Creating layer relu7
I0128 17:45:52.765338  6262 net.cpp:100] Creating Layer relu7
I0128 17:45:52.765344  6262 net.cpp:434] relu7 <- fc7
I0128 17:45:52.765350  6262 net.cpp:395] relu7 -> fc7 (in-place)
I0128 17:45:52.765360  6262 net.cpp:150] Setting up relu7
I0128 17:45:52.765365  6262 net.cpp:157] Top shape: 50 4096 (204800)
I0128 17:45:52.765369  6262 net.cpp:165] Memory required for data: 342188400
I0128 17:45:52.765372  6262 layer_factory.hpp:77] Creating layer drop7
I0128 17:45:52.765379  6262 net.cpp:100] Creating Layer drop7
I0128 17:45:52.765383  6262 net.cpp:434] drop7 <- fc7
I0128 17:45:52.765388  6262 net.cpp:395] drop7 -> fc7 (in-place)
I0128 17:45:52.765393  6262 net.cpp:150] Setting up drop7
I0128 17:45:52.765398  6262 net.cpp:157] Top shape: 50 4096 (204800)
I0128 17:45:52.765401  6262 net.cpp:165] Memory required for data: 343007600
I0128 17:45:52.765404  6262 layer_factory.hpp:77] Creating layer fc8
I0128 17:45:52.765413  6262 net.cpp:100] Creating Layer fc8
I0128 17:45:52.765415  6262 net.cpp:434] fc8 <- fc7
I0128 17:45:52.765420  6262 net.cpp:408] fc8 -> fc8
I0128 17:45:52.765717  6262 net.cpp:150] Setting up fc8
I0128 17:45:52.765725  6262 net.cpp:157] Top shape: 50 2 (100)
I0128 17:45:52.765739  6262 net.cpp:165] Memory required for data: 343008000
I0128 17:45:52.765744  6262 layer_factory.hpp:77] Creating layer fc8_fc8_0_split
I0128 17:45:52.765750  6262 net.cpp:100] Creating Layer fc8_fc8_0_split
I0128 17:45:52.765754  6262 net.cpp:434] fc8_fc8_0_split <- fc8
I0128 17:45:52.765760  6262 net.cpp:408] fc8_fc8_0_split -> fc8_fc8_0_split_0
I0128 17:45:52.765766  6262 net.cpp:408] fc8_fc8_0_split -> fc8_fc8_0_split_1
I0128 17:45:52.765772  6262 net.cpp:150] Setting up fc8_fc8_0_split
I0128 17:45:52.765776  6262 net.cpp:157] Top shape: 50 2 (100)
I0128 17:45:52.765796  6262 net.cpp:157] Top shape: 50 2 (100)
I0128 17:45:52.765800  6262 net.cpp:165] Memory required for data: 343008800
I0128 17:45:52.765803  6262 layer_factory.hpp:77] Creating layer accuracy
I0128 17:45:52.765813  6262 net.cpp:100] Creating Layer accuracy
I0128 17:45:52.765818  6262 net.cpp:434] accuracy <- fc8_fc8_0_split_0
I0128 17:45:52.765822  6262 net.cpp:434] accuracy <- label_data_1_split_0
I0128 17:45:52.765827  6262 net.cpp:408] accuracy -> accuracy
…
